The model will be running on cuda:0 device

----------------------------------------------------------------
        Layer (type)               Output Shape         Param #
================================================================
            Conv2d-1           [-1, 32, 33, 33]             160
         LeakyReLU-2           [-1, 32, 33, 33]               0
         Dropout2d-3           [-1, 32, 33, 33]               0
            Conv2d-4           [-1, 16, 34, 34]           2,064
         LeakyReLU-5           [-1, 16, 34, 34]               0
         Dropout2d-6           [-1, 16, 34, 34]               0
            Conv2d-7            [-1, 8, 35, 35]             520
         LeakyReLU-8            [-1, 8, 35, 35]               0
            Conv2d-9            [-1, 1, 36, 36]              33
        LeakyReLU-10            [-1, 1, 36, 36]               0
          Flatten-11                 [-1, 1296]               0
           Linear-12                 [-1, 1296]       1,680,912
        LeakyReLU-13                 [-1, 1296]               0
           Linear-14                  [-1, 256]         332,032
        LeakyReLU-15                  [-1, 256]               0
           Linear-16                   [-1, 64]          16,448
        LeakyReLU-17                   [-1, 64]               0
           Linear-18                    [-1, 4]             260
        LeakyReLU-19                    [-1, 4]               0
================================================================
Total params: 2,032,429
Trainable params: 2,032,429
Non-trainable params: 0
----------------------------------------------------------------
Input size (MB): 0.00
Forward/backward pass size (MB): 1.42
Params size (MB): 7.75
Estimated Total Size (MB): 9.18
----------------------------------------------------------------
Begin training...
…
    return torch._C._nn.linear(input, weight, bias)
RuntimeError: mat1 and mat2 shapes cannot be multiplied (2x1156 and 1296x1296)
    ~/Workspace/Develop/HArm/Playground/test    main +3 !54 ?9  python model.py                                                                                                                         1 ✘  3s   Playground  
The model will be running on cuda:0 device

----------------------------------------------------------------
        Layer (type)               Output Shape         Param #
================================================================
            Conv2d-1           [-1, 32, 31, 31]             160
         LeakyReLU-2           [-1, 32, 31, 31]               0
         Dropout2d-3           [-1, 32, 31, 31]               0
            Conv2d-4           [-1, 16, 32, 32]           2,064
         LeakyReLU-5           [-1, 16, 32, 32]               0
         Dropout2d-6           [-1, 16, 32, 32]               0
            Conv2d-7            [-1, 8, 33, 33]             520
         LeakyReLU-8            [-1, 8, 33, 33]               0
            Conv2d-9            [-1, 1, 34, 34]              33
        LeakyReLU-10            [-1, 1, 34, 34]               0
          Flatten-11                 [-1, 1156]               0
           Linear-12                 [-1, 1296]       1,499,472
        LeakyReLU-13                 [-1, 1296]               0
           Linear-14                  [-1, 256]         332,032
        LeakyReLU-15                  [-1, 256]               0
           Linear-16                   [-1, 64]          16,448
        LeakyReLU-17                   [-1, 64]               0
           Linear-18                    [-1, 4]             260
        LeakyReLU-19                    [-1, 4]               0
================================================================
Total params: 1,850,989
Trainable params: 1,850,989
Non-trainable params: 0
----------------------------------------------------------------
Input size (MB): 0.00
Forward/backward pass size (MB): 1.26
Params size (MB): 7.06
Estimated Total Size (MB): 8.33
----------------------------------------------------------------
Begin training...
…
    return torch._C._nn.linear(input, weight, bias)
RuntimeError: mat1 and mat2 shapes cannot be multiplied (2x1225 and 1156x1296)
    ~/Workspace/Develop/HArm/Playground/test    main +3 !54 ?9  python model.py                                                                                                                         1 ✘  3s   Playground  
The model will be running on cuda:0 device

----------------------------------------------------------------
        Layer (type)               Output Shape         Param #
================================================================
            Conv2d-1           [-1, 32, 32, 32]             320
         LeakyReLU-2           [-1, 32, 32, 32]               0
         Dropout2d-3           [-1, 32, 32, 32]               0
            Conv2d-4           [-1, 16, 33, 33]           2,064
         LeakyReLU-5           [-1, 16, 33, 33]               0
         Dropout2d-6           [-1, 16, 33, 33]               0
            Conv2d-7            [-1, 8, 34, 34]             520
         LeakyReLU-8            [-1, 8, 34, 34]               0
            Conv2d-9            [-1, 1, 35, 35]              33
        LeakyReLU-10            [-1, 1, 35, 35]               0
          Flatten-11                 [-1, 1225]               0
           Linear-12                 [-1, 1296]       1,588,896
        LeakyReLU-13                 [-1, 1296]               0
           Linear-14                  [-1, 256]         332,032
        LeakyReLU-15                  [-1, 256]               0
           Linear-16                   [-1, 64]          16,448
        LeakyReLU-17                   [-1, 64]               0
           Linear-18                    [-1, 4]             260
        LeakyReLU-19                    [-1, 4]               0
================================================================
Total params: 1,940,573
Trainable params: 1,940,573
Non-trainable params: 0
----------------------------------------------------------------
Input size (MB): 0.00
Forward/backward pass size (MB): 1.34
Params size (MB): 7.40
Estimated Total Size (MB): 8.75
----------------------------------------------------------------
Begin training...
…
    return torch._C._nn.linear(input, weight, bias)
RuntimeError: mat1 and mat2 shapes cannot be multiplied (2x1024 and 1225x1296)
    ~/Workspace/Develop/HArm/Playground/test    main +3 !54 ?9  python model.py                                                                                                                         1 ✘  3s   Playground  
The model will be running on cuda:0 device

----------------------------------------------------------------
        Layer (type)               Output Shape         Param #
================================================================
            Conv2d-1           [-1, 32, 32, 32]             320
         LeakyReLU-2           [-1, 32, 32, 32]               0
         Dropout2d-3           [-1, 32, 32, 32]               0
            Conv2d-4           [-1, 16, 32, 32]           4,624
         LeakyReLU-5           [-1, 16, 32, 32]               0
         Dropout2d-6           [-1, 16, 32, 32]               0
            Conv2d-7            [-1, 8, 32, 32]           1,160
         LeakyReLU-8            [-1, 8, 32, 32]               0
            Conv2d-9            [-1, 1, 32, 32]              73
        LeakyReLU-10            [-1, 1, 32, 32]               0
          Flatten-11                 [-1, 1024]               0
           Linear-12                 [-1, 1296]       1,328,400
        LeakyReLU-13                 [-1, 1296]               0
           Linear-14                  [-1, 256]         332,032
        LeakyReLU-15                  [-1, 256]               0
           Linear-16                   [-1, 64]          16,448
        LeakyReLU-17                   [-1, 64]               0
           Linear-18                    [-1, 4]             260
        LeakyReLU-19                    [-1, 4]               0
================================================================
Total params: 1,683,317
Trainable params: 1,683,317
Non-trainable params: 0
----------------------------------------------------------------
Input size (MB): 0.00
Forward/backward pass size (MB): 1.30
Params size (MB): 6.42
Estimated Total Size (MB): 7.72
----------------------------------------------------------------
Begin training...
…
    return torch._C._nn.linear(input, weight, bias)
RuntimeError: mat1 and mat2 shapes cannot be multiplied (2x784 and 1024x1296)
    ~/Workspace/Develop/HArm/Playground/test    main +3 !54 ?9  python model.py                                                                                                                         1 ✘  3s   Playground  
The model will be running on cuda:0 device

----------------------------------------------------------------
        Layer (type)               Output Shape         Param #
================================================================
            Conv2d-1           [-1, 32, 32, 32]             320
         LeakyReLU-2           [-1, 32, 32, 32]               0
         Dropout2d-3           [-1, 32, 32, 32]               0
            Conv2d-4           [-1, 16, 32, 32]           4,624
         LeakyReLU-5           [-1, 16, 32, 32]               0
         Dropout2d-6           [-1, 16, 32, 32]               0
            Conv2d-7            [-1, 8, 32, 32]           1,160
         LeakyReLU-8            [-1, 8, 32, 32]               0
            Conv2d-9            [-1, 8, 32, 32]             584
        LeakyReLU-10            [-1, 8, 32, 32]               0
           Conv2d-11            [-1, 8, 30, 30]             584
        LeakyReLU-12            [-1, 8, 30, 30]               0
           Conv2d-13            [-1, 1, 28, 28]              73
        LeakyReLU-14            [-1, 1, 28, 28]               0
          Flatten-15                  [-1, 784]               0
           Linear-16                 [-1, 1296]       1,017,360
        LeakyReLU-17                 [-1, 1296]               0
           Linear-18                  [-1, 256]         332,032
        LeakyReLU-19                  [-1, 256]               0
           Linear-20                   [-1, 64]          16,448
        LeakyReLU-21                   [-1, 64]               0
           Linear-22                    [-1, 4]             260
        LeakyReLU-23                    [-1, 4]               0
================================================================
Total params: 1,373,445
Trainable params: 1,373,445
Non-trainable params: 0
----------------------------------------------------------------
Input size (MB): 0.00
Forward/backward pass size (MB): 1.53
Params size (MB): 5.24
Estimated Total Size (MB): 6.77
----------------------------------------------------------------
Begin training...
…
    return torch._C._nn.linear(input, weight, bias)
RuntimeError: mat1 and mat2 shapes cannot be multiplied (2x256 and 784x1296)
    ~/Workspace/Develop/HArm/Playground/test    main +3 !54 ?9  python model.py                                                                                                                         1 ✘  3s   Playground  
The model will be running on cuda:0 device

----------------------------------------------------------------
        Layer (type)               Output Shape         Param #
================================================================
            Conv2d-1           [-1, 32, 32, 32]             320
         LeakyReLU-2           [-1, 32, 32, 32]               0
         Dropout2d-3           [-1, 32, 32, 32]               0
            Conv2d-4           [-1, 16, 32, 32]           4,624
         LeakyReLU-5           [-1, 16, 32, 32]               0
         Dropout2d-6           [-1, 16, 32, 32]               0
            Conv2d-7            [-1, 8, 32, 32]           1,160
         LeakyReLU-8            [-1, 8, 32, 32]               0
            Conv2d-9            [-1, 1, 32, 32]              73
        LeakyReLU-10            [-1, 1, 32, 32]               0
        MaxPool2d-11            [-1, 1, 16, 16]               0
        LeakyReLU-12            [-1, 1, 16, 16]               0
          Flatten-13                  [-1, 256]               0
           Linear-14                 [-1, 1024]         263,168
        LeakyReLU-15                 [-1, 1024]               0
           Linear-16                  [-1, 256]         262,400
        LeakyReLU-17                  [-1, 256]               0
           Linear-18                   [-1, 64]          16,448
        LeakyReLU-19                   [-1, 64]               0
           Linear-20                    [-1, 4]             260
        LeakyReLU-21                    [-1, 4]               0
================================================================
Total params: 548,453
Trainable params: 548,453
Non-trainable params: 0
----------------------------------------------------------------
Input size (MB): 0.00
Forward/backward pass size (MB): 1.29
Params size (MB): 2.09
Estimated Total Size (MB): 3.39
----------------------------------------------------------------
Begin training...
…
  File "/home/alberto/Workspace/Develop/HArm/Playground/venv/lib/python3.9/site-packages/torch/optim/_functional.py", line 87, in adam
    exp_avg_sq.mul_(beta2).addcmul_(grad, grad.conj(), value=1 - beta2)
KeyboardInterrupt

    ~/Workspace/Develop/HArm/Playground/test    main +3 !54 ?9  python model.py                                                                                                                   INT ✘  1m 31s   Playground  
The model will be running on cuda:0 device

----------------------------------------------------------------
        Layer (type)               Output Shape         Param #
================================================================
            Conv2d-1           [-1, 16, 32, 32]             160
         LeakyReLU-2           [-1, 16, 32, 32]               0
         Dropout2d-3           [-1, 16, 32, 32]               0
            Conv2d-4           [-1, 16, 32, 32]           2,320
         LeakyReLU-5           [-1, 16, 32, 32]               0
         Dropout2d-6           [-1, 16, 32, 32]               0
            Conv2d-7            [-1, 8, 32, 32]           1,160
         LeakyReLU-8            [-1, 8, 32, 32]               0
            Conv2d-9            [-1, 1, 32, 32]              73
        LeakyReLU-10            [-1, 1, 32, 32]               0
        MaxPool2d-11            [-1, 1, 16, 16]               0
        LeakyReLU-12            [-1, 1, 16, 16]               0
          Flatten-13                  [-1, 256]               0
           Linear-14                 [-1, 1024]         263,168
        LeakyReLU-15                 [-1, 1024]               0
          Dropout-16                 [-1, 1024]               0
           Linear-17                  [-1, 256]         262,400
        LeakyReLU-18                  [-1, 256]               0
           Linear-19                   [-1, 64]          16,448
        LeakyReLU-20                   [-1, 64]               0
           Linear-21                    [-1, 4]             260
        LeakyReLU-22                    [-1, 4]               0
================================================================
Total params: 545,989
Trainable params: 545,989
Non-trainable params: 0
----------------------------------------------------------------
Input size (MB): 0.00
Forward/backward pass size (MB): 0.92
Params size (MB): 2.08
Estimated Total Size (MB): 3.01
----------------------------------------------------------------
Begin training...
…
    image_depth = (image_depth - np.min(image_depth))/(np.max(image_depth) - np.min(image_depth))
KeyboardInterrupt

    ~/Workspace/Develop/HArm/Playground/test    main +3 !54 ?9  python model.py                                                                                                                   INT ✘  4m 38s   Playground  
The model will be running on cuda:0 device

----------------------------------------------------------------
        Layer (type)               Output Shape         Param #
================================================================
            Conv2d-1           [-1, 16, 32, 32]             160
         LeakyReLU-2           [-1, 16, 32, 32]               0
         Dropout2d-3           [-1, 16, 32, 32]               0
            Conv2d-4           [-1, 16, 32, 32]           2,320
           Sigmoid-5           [-1, 16, 32, 32]               0
         Dropout2d-6           [-1, 16, 32, 32]               0
            Conv2d-7            [-1, 8, 32, 32]           1,160
         LeakyReLU-8            [-1, 8, 32, 32]               0
            Conv2d-9            [-1, 1, 32, 32]              73
        LeakyReLU-10            [-1, 1, 32, 32]               0
        MaxPool2d-11            [-1, 1, 16, 16]               0
        LeakyReLU-12            [-1, 1, 16, 16]               0
          Flatten-13                  [-1, 256]               0
           Linear-14                 [-1, 1024]         263,168
        LeakyReLU-15                 [-1, 1024]               0
          Dropout-16                 [-1, 1024]               0
           Linear-17                  [-1, 256]         262,400
          Dropout-18                  [-1, 256]               0
        LeakyReLU-19                  [-1, 256]               0
           Linear-20                   [-1, 64]          16,448
        LeakyReLU-21                   [-1, 64]               0
           Linear-22                    [-1, 4]             260
        LeakyReLU-23                    [-1, 4]               0
================================================================
Total params: 545,989
Trainable params: 545,989
Non-trainable params: 0
----------------------------------------------------------------
Input size (MB): 0.00
Forward/backward pass size (MB): 0.93
Params size (MB): 2.08
Estimated Total Size (MB): 3.01
----------------------------------------------------------------
Training set size: 9380
…
  File "/home/alberto/Workspace/Develop/HArm/Playground/venv/lib/python3.9/site-packages/numpy/lib/format.py", line 305, in descr_to_dtype
    return numpy.dtype(descr)
KeyboardInterrupt

    ~/Workspace/Develop/HArm/Playground/test    main +3 !54 ?9  python model.py                                                                                                                   INT ✘  6m 19s   Playground  
The model will be running on cuda:0 device

----------------------------------------------------------------
        Layer (type)               Output Shape         Param #
================================================================
            Conv2d-1           [-1, 16, 32, 32]             160
         LeakyReLU-2           [-1, 16, 32, 32]               0
         Dropout2d-3           [-1, 16, 32, 32]               0
            Conv2d-4           [-1, 16, 32, 32]           2,320
           Sigmoid-5           [-1, 16, 32, 32]               0
         Dropout2d-6           [-1, 16, 32, 32]               0
            Conv2d-7            [-1, 8, 32, 32]           1,160
         LeakyReLU-8            [-1, 8, 32, 32]               0
            Conv2d-9            [-1, 1, 32, 32]              73
        LeakyReLU-10            [-1, 1, 32, 32]               0
        MaxPool2d-11            [-1, 1, 16, 16]               0
        LeakyReLU-12            [-1, 1, 16, 16]               0
          Flatten-13                  [-1, 256]               0
           Linear-14                 [-1, 1024]         263,168
        LeakyReLU-15                 [-1, 1024]               0
          Dropout-16                 [-1, 1024]               0
           Linear-17                  [-1, 128]         131,200
        LeakyReLU-18                  [-1, 128]               0
           Linear-19                   [-1, 64]           8,256
        LeakyReLU-20                   [-1, 64]               0
           Linear-21                    [-1, 4]             260
        LeakyReLU-22                    [-1, 4]               0
================================================================
Total params: 406,597
Trainable params: 406,597
Non-trainable params: 0
----------------------------------------------------------------
Input size (MB): 0.00
Forward/backward pass size (MB): 0.92
Params size (MB): 1.55
Estimated Total Size (MB): 2.48
----------------------------------------------------------------
Training set size: 9380
…
